model/ANN_model.pth (torch, 537244 bytes, 5 tensors)

hidden1.weight f4 [256, 5]
0.0057828627 0.04109881 -0.07561184 0.021765646 -0.17884415 -0.48409316 0.7609041 0.68127525
0.5200667 -0.48848277 -0.012705629 -0.07350441 0.04710237 0.10880272 0.105301715 0.37726003
-0.024034627 -0.12902178 0.05116156 0.11167253 0.03332906 -0.51763844 -0.309643 -0.7800906
-0.5824166 -0.8109558 -1.0973703 -0.49228713 -1.1773857 0.727491 0.47050905 0.8716611
0.49007916 0.3187281 0.34797278 -0.70413774 0.80442387 0.059320442 0.930554 0.072112575
0.6267595 0.5887999 -0.22204322 -0.495235 0.2580949 -0.045871224 -0.3039136 0.22865033
-0.9731691 -0.4115844 -0.98541594 1.3140025 -0.80564785 0.32834032 0.061170552 0.6053074
-0.055331323 -0.12495368 0.9567727 0.5983614 -0.5201645 -0.56621224 0.12287788 -0.18668716
0.62100863 0.5481305 0.3100104 -0.593907 -0.98134094 0.6003906 0.4502759 -0.22187708
-0.4150203 0.27564108 -0.4409182 -0.28402442 -1.3669573 0.22939913 -0.19955316 -0.45581856
-0.51721305 -0.5859977 0.4206078 -0.6344949 1.6124827 -0.6113579 -0.5377601 0.56914836
-1.1688854 -0.44638163 -0.6826376 0.90770155 0.08784825 -0.8347177 -0.2836342 0.3683508
-0.16652255 0.15070824 -0.48738292 -0.5851085 -0.3302075 1.2873727 0.42944917 -0.13804509
-0.78308994 0.6891907 0.79211044 0.06026753 -0.7162401 -0.13847868 0.29073036 0.57514274
0.3736818 -0.5713427 0.52899283 -0.49546564 -0.20842175 -0.35036144 -0.5085785 0.8594977
0.6097504 0.3097976 -0.5484197 -0.60019195 0.49817356 -0.27663207 -0.5650073 0.39900756
-0.9960791 0.4498319 -0.054057498 0.038942568 -0.009290708 -0.12775089 -0.23731999 -0.93759555
0.184549 0.4855616 -0.7602431 -0.6583437 0.18518658 1.0688738 0.8294773 -0.8674649
0.71547526 0.5055752 0.7115878 -0.40382776 0.695269 -1.1493665 -1.1255107 0.07754286
-0.24400416 -0.10979442 -0.24968076 -1.1872993 0.72950006 0.6133532 0.6353764 0.27161753
-0.8971414 -0.2824621 -0.021685043 -0.17667826 -0.69942224 1.1843816 -1.1199235 -0.01922796
-1.2718827 0.6004534 -0.06768956 0.57685256 0.1492759 -1.293835 0.79677916 -0.9202948
0.27057692 -0.736532 0.90658545 0.18795912 0.13302255 -0.012143681 0.38331228 0.5154525
-0.016746782 -0.22293971 0.28370234 0.2546445 0.7284489 0.6494922 0.22152199 0.07730511
-0.72719455 -1.1100336 0.6589098 -1.0321323 0.22165078 0.5936278 -0.71005356 -0.38319942
-1.2414358 0.86422503 -0.040370278 0.41315645 -0.2843487 -0.078989 0.6416139 -0.5674403
-0.46624494 0.8056674 0.6726954 -0.32831872 -0.44830546 0.06543406 0.2696147 0.42464438
0.4119257 -0.039891053 -0.5192617 0.09925908 0.3850825 0.38261235 -0.37956262 -0.038089562
0.06824684 -0.123300135 0.43276912 0.2172973 0.7337717 0.69117695 -0.20986775 -0.80963403
0.28869775 0.050920706 1.0720268 0.27521738 0.45366782 0.043825258 0.083729476 0.27574468
-1.3879137 0.6750193 0.44105336 -0.32222956 -0.022937434 0.3919909 0.20825724 -0.6345006
-0.67775005 0.3669967 -0.7133519 -0.09934012 0.3395398 0.080862544 -0.9274304 0.004065402
00000000: 2b7e bd3b 3a57 283d 61da 9abd de4d b23c
00000010: ec22 37be 0fdb f7be 9cca 423f 0e68 2e3f
00000020: 1723 053f 6a1a fabe 452b 50bc 7b89 96bd
00000030: 6aee 403d f6d3 de3d 6da8 d73d 3a28 c13e
00000040: 44e4 c4bc 491e 04be c98e 513d 91b4 e43d
00000050: 0d84 083d f483 04bf 8789 9ebe 04b4 47bf
00000060: 4119 15bf cd9a 4fbf a176 8cbf 0f0d fcbe
00000070: 93b4 96bf da3c 3a3f 90e6 f03e 2f25 5f3f
00000080: a8eb fa3e 5430 a33e 7d29 b23e 5f42 34bf
00000090: b9ee 4d3f fef9 723d c938 6e3f c2af 933d
000000a0: 5073 203f 97bb 163f 4c5f 63be 718f fdbe
000000b0: 0425 843e 77e3 3bbd 909a 9bbe 5023 6a3e
000000c0: 9c21 79bf 31bb d2be 3844 7cbf 3c31 a83f
000000d0: f03e 4ebf 391c a83e f98d 7a3d 6df5 1a3f
000000e0: 19a3 62bd b7e7 ffbd 0eef 743f 362e 193f
000000f0: 8029 05bf 49f3 10bf 66a7 fb3d eb2a 3fbe
00000100: 6cfa 1e3f 4852 0c3f afb9 9e3e 4a0a 18bf
00000110: 2939 7bbf 33b3 193f 908a e63e bf33 63be
00000120: 8a7d d4be d420 8d3e 08c0 e1be a66b 91be
00000130: 75f8 aebf 9be7 6a3e aa57 4cbe 0d61 e9be
00000140: 1368 04bf f203 16bf e859 d73e 426e 22bf
00000150: d565 ce3f f481 1cbf a5aa 09bf b5b3 113f
00000160: 099e 95bf 228c e4be 56c1 2ebf 215f 683f
00000170: c9e9 b33d 0fb0 55bf 8038 91be 7a98 bc3e
00000180: e384 2abe 4353 1a3e 418a f9be acc9 15bf
00000190: f510 a9be a1c8 a43f c3e0 db3e b15b 0dbe
000001a0: 9578 48bf cd6e 303f c0c7 4a3f 16db 763d
000001b0: 835b 37bf 5bcd 0dbe 9cda 943e 8e3c 133f
000001c0: 3953 bf3e 8443 12bf 136c 073f acad fdbe
000001d0: 836c 55be 9362 b3be 3332 02bf 0b08 5c3f
000001e0: 9a18 1c3f cb9d 9e3e 3c65 0cbf 2ea6 19bf
000001f0: 9b10 ff3e b8a2 8dbe 52a4 10bf b84a cc3e
00000200: 0aff 7ebf 5e50 e63e 656b 5dbd 3e82 1f3d
00000210: 0e38 18bc 21d1 02be 0304 73be 4306 70bf
00000220: 6afa 3c3e 889b f83e 4b9f 42bf 3689 28bf
00000230: 8da1 3d3e dbd0 883f a058 543f 2e12 5ebf
00000240: 6329 373f 606d 013f 9e2a 363f 83c2 cebe
00000250: 26fd 313f 711e 93bf bc10 90bf cace 9e3d
00000260: 3adc 79be e6db e0bd 50ac 7fbe 6cf9 97bf
00000270: 84c0 3a3f b704 1d3f 07a8 223f 7411 8b3e
00000280: 0fab 65bf df9e 90be d5a4 b1bc 25eb 34be
00000290: 560d 33bf d199 973f a759 8fbf f483 9dbc
000002a0: 0dcd a2bf 50b7 193f d3a0 8abd 9cac 133f
000002b0: c8db 183e 639c a5bf b8f9 4b3f 7198 6bbf
000002c0: 0f89 8a3e 5c8d 3cbf fc15 683f 5b78 403e
000002d0: 1037 083e 4af6 46bc 8241 c43e b2f4 033f
000002e0: 8c30 89bc 4f4a 64be 6f41 913e c460 823e
000002f0: a17b 3a3f 1f45 263f a9d6 623e 2452 9e3d
00000300: 6c29 3abf 9515 8ebf 50ae 283f e91c 84bf
00000310: 6cf8 623e fef7 173f 12c6 35bf b732 c4be
00000320: 5ee7 9ebf da3d 5d3f 4e5b 25bd 3e89 d33e
00000330: 2796 91be fcc4 a1bd cf40 243f c443 11bf
00000340: a8b7 eebe 3840 4e3f c435 2c3f 6419 a8be
00000350: 4b88 e5be 4b02 863d f00a 8a3e fd6a d93e
00000360: ede7 d23e cd64 23bd 56ee 04bf 5848 cb3d
00000370: 8929 c53e c4e5 c33e 0856 c2be cd03 1cbd
00000380: 00c5 8b3d c884 fcbd ea93 dd3e 2f83 5e3e
00000390: 76d8 3b3f f9f0 303f 92e7 56be 2d44 4fbf
000003a0: 31d0 933e 3b92 503d 2d38 893f 4be9 8c3e
000003b0: 2647 e83e 1d82 333d 5c7a ab3d 682e 8d3e
000003c0: 28a7 b1bf 11ce 2c3f bfd1 e13e 46fb a4be
000003d0: 49e7 bbbc 08b3 c83e 6341 553e a26e 22bf
000003e0: 0781 2dbf fee6 bb3e 3b9e 36bf d572 cbbd
000003f0: 29d8 ad3e 439b a53d 146c 6dbf 1037 853b

hidden1.bias f4 [256]
0.067850575 -0.85308456 0.23896302 0.31263572 -0.34482712 -0.18768002 -0.050655626 -0.8589771
0.65187216 -0.66096914 0.45133233 -0.6814373 -0.36104098 0.45171908 0.23036002 -0.8511795
-1.0263162 -0.5281837 0.48701614 -0.5473923 -0.2886096 -0.23549016 -0.40478528 -0.7730033
0.15912668 -0.37068054 0.093905546 -0.5410828 -0.39473143 0.038019784 -0.32106462 -0.5447973
-0.12651452 -0.23159383 -0.68805313 -0.26828265 0.31773114 0.08798411 -0.0149750775 0.3481938
-0.2909778 -0.7210792 -0.19887255 0.51433015 -0.031188207 0.6602509 -0.7011578 -0.04930745
-0.22139466 -0.29815668 -0.35136417 0.046607375 -0.06826945 -0.0948487 -0.047978934 -0.8132045
0.47658974 -0.3635858 -0.085183725 -0.70070374 -0.45290136 -0.60337293 -0.72067595 -0.070855804
-0.4944374 0.32499814 0.043494876 -0.37139186 0.15173085 -0.21253179 -0.37928712 -0.717484
0.06762846 0.21944107 -0.21460332 0.44798487 -0.4979035 0.24348518 -0.7499905 -0.059126977
-0.8164328 -0.15029415 0.62977594 -0.64586526 0.0942461 -0.6048978 -0.62029845 -0.18872796
-0.874344 0.17658386 -0.7076976 -0.49320495 -0.38384277 -0.38256395 -0.7327025 -0.5510832
-0.33226323 -0.30983007 -0.16415803 -0.4894697 -0.06106388 0.25287616 -0.48768473 -0.49760213
0.14150976 -0.7783659 0.05494476 -0.75364506 0.0903905 -0.23150074 -0.7073609 0.7482556
0.6255983 -0.180206 -0.54265463 -0.09795964 -0.687223 0.56266373 -0.2396555 -0.66511106
-0.4705844 0.5611869 -0.15337217 -0.15790282 0.12945245 0.41477865 -0.31662276 -0.5473409
-0.80742425 0.791863 0.1915287 -0.7190251 -0.51974916 0.086778715 -0.9606798 -0.03812959
0.24520148 -0.14916642 -0.56874555 0.13845067 -0.81104046 0.49202728 -0.60851353 0.0145961605
0.07837661 0.34428656 0.18697214 0.19927213 -0.32978702 -0.5578193 -0.49433997 -0.78231376
-0.32019004 -0.6977772 -0.96688896 -0.4854103 0.43966478 -0.7651978 -0.72376823 -0.75030667
-0.19058448 -0.57406175 -0.59617966 -0.45081395 0.1595693 0.38238993 -0.70869255 -0.5225751
-0.8034815 -0.74698466 -0.21907482 -0.95167434 -0.17967871 0.2696994 -0.15188427 -0.06275442
-0.8585684 0.052354768 0.060324997 -0.24838766 -0.70291793 -0.4223012 -0.5063361 -0.6811369
-0.025782915 -0.41134092 -0.70757806 -0.61544544 -0.029331941 -0.40873036 -0.7928191 0.086915866
-0.45851803 -0.6371278 -0.0032736864 0.09698533 -0.3498693 -0.22284731 -0.13338326 -0.57937074
-0.57808495 -0.77557445 -0.37602517 -0.14736184 -0.4983554 0.24583751 -0.15445243 -0.18597217
-0.68948114 -1.1720333 -0.5018541 -0.6402212 -0.63481647 -0.7550923 -0.4417551 -0.03408474
-0.3065296 -0.4236964 0.17577457 -0.54938555 -0.22430542 -0.17610472 -0.6444468 -0.11868632
0.14978462 0.40098032 -0.9785535 -0.108761005 -0.17108357 -0.7265964 -0.23938549 -0.2922198
-0.698776 -0.7012525 -0.10734129 -0.8011933 -0.6469846 -0.2230878 -0.975763 -0.14257231
-0.6098992 -0.55420464 -0.61007607 0.022189002 -0.29887712 -0.92093617 -0.14374718 0.20179269
0.25789842 0.5979896 -0.45250666 -0.64123154 -0.6674493 -0.3064503 0.09550176 -0.020371368
00000000: 3ef5 8a3d c063 5abf b9b2 743e ca11 a03e
00000010: 2e8d b0be 312f 40be 467c 4fbd ece5 5bbf
00000020: 18e1 263f 4635 29bf 0815 e73e ad72 2ebf
00000030: 5dda b8be b947 e73e 7fe3 6b3e e6e6 59bf
00000040: 545e 83bf 0c37 07bf 2e5a f93e e721 0cbf
00000050: a3c4 93be 5524 71be 0440 cfbe 8be3 45bf
00000060: 1bf2 223e d7c9 bdbe 8d51 c03d 6784 0abf
00000070: 3d1a cabe a2ba 1b3d 9562 a4be d677 0bbf
00000080: 068d 01be ef26 6dbe 4024 30bf 585c 89be
00000090: a8ad a23e 0331 b43d 075a 75bc 7546 b23e
000000a0: 0bfb 94be a598 38bf 3fa5 4bbe 24ab 033f
000000b0: 697e ffbc 3406 293f 147f 33bf 9cf6 49bd
000000c0: 48b5 62be fea7 98be 01e6 b3be 60e7 3e3d
000000d0: dad0 8bbd 0940 c2bd 8f85 44bd 2c2e 50bf
000000e0: 9203 f43e eb27 babe ce74 aebd 5261 33bf
000000f0: b0e2 e7be a676 1abf 387e 38bf d91c 91bd
00000100: e626 fdbe 2866 a63e af27 323d 1327 bebe
00000110: 555f 1b3e efa1 59be ec31 c2be 08ad 37bf
00000120: ca80 8a3d 29b5 603e f9c0 5bbe 465e e53e
00000130: 35ed febe 2e54 793e 61ff 3fbf 212f 72bd
00000140: bd01 51bf b6e6 19be ff38 213f 6d57 25bf
00000150: 1904 c13d 95da 1abf e1cb 1ebf e741 41be
00000160: 02d5 5fbf 66d2 343e ab2b 35bf 5c85 fcbe
00000170: 0a87 c4be 6cdf c3be 6492 3bbf ca13 0dbf
00000180: 681e aabe 0ca2 9ebe 0b19 28be c69b fabe
00000190: 1e1e 7abd fc78 813e d0b1 f9be b5c5 febe
000001a0: efe7 103e fd42 47bf c20d 613d e2ee 40bf
000001b0: a81e b93d 880e 6dbe 9b15 35bf ae8d 3f3f
000001c0: 3627 203f ec87 38be 6aeb 0abf 109f c8bd
000001d0: d9ed 2fbf bb0a 103f 4068 75be b844 2abf
000001e0: 70f0 f0be f2a9 0f3f 980d 1dbe 47b1 21be
000001f0: 2f8f 043e de5d d43e 611c a2be 891e 0cbf
00000200: 5bb3 4ebf 89b7 4a3f 1920 443e 0712 38bf
00000210: 480e 05bf 0ab9 b13d 1def 75bf c62d 1cbd
00000220: 1916 7b3e 15bf 18be 4f99 11bf 03c6 0d3e
00000230: 59a0 4fbf 00eb fb3e 8bc7 1bbf bc24 6f3c
00000240: eb83 a03d 5446 b03e a075 3f3e fe0d 4c3e
00000250: d8d9 a8be 3fcd 0ebf 211a fdbe b745 48bf
00000260: f3ef a3be 87a1 32bf 0986 77bf b387 f8be
00000270: be1b e13e 01e4 43bf e048 39bf 1914 40bf
00000280: 9428 43be b6f5 12bf 3b9f 18bf 16d1 e6be
00000290: 2266 233e 9dc8 c33e e06c 35bf 7bc7 05bf
000002a0: f7b0 4dbf 633a 3fbf 2655 60be eea0 73bf
000002b0: b2fd 37be 0a16 8a3e 8d87 1bbe 6485 80bd
000002c0: 23cb 5bbf f471 563d 5817 773d 5659 7ebe
000002d0: 6ef2 33bf dd37 d8be 3e9f 01bf fd5e 2ebf
000002e0: b136 d3bc 479b d2be d623 35bf d58d 1dbf
000002f0: 8a49 f0bc 1b45 d1be 31f6 4abf f200 b23d
00000300: e0c2 eabe cf1a 23bf 588b 56bb 3fa0 c63d
00000310: 1222 b3be 1632 64be 9f95 08be a451 14bf
00000320: 60fd 13bf 0c8c 46bf 5f86 c0be 06e6 16be
00000330: 7028 ffbe d4bc 7b3e c728 1ebe 7d6f 3ebe
00000340: d681 30bf 3005 96bf 8379 00bf 89e5 23bf
00000350: 5583 22bf bb4d 41bf b92d e2be 719c 0bbd
00000360: 73f1 9cbe bcee d8be 40fe 333e 88a4 0cbf
00000370: 52b0 65be cc54 34be 77fa 24bf d011 f3bd
00000380: 2461 193e 4b4d cd3e 7b82 7abf 17be debd
00000390: 8830 2fbe 3902 3abf 7821 75be d59d 95be
000003a0: fce2 32bf 4985 33bf c0d5 dbbd 011b 4dbf
000003b0: c8a0 25bf 2171 64be 9bcb 79bf 7afe 11be
000003c0: 5b22 1cbf 5be0 0dbf f22d 1cbf b6c5 b53c
000003d0: 6c06 99be 79c2 6bbf 7632 13be bea2 4e3e
000003e0: 430b 843e d915 193f f4ae e7be c027 24bf
000003f0: f5dd 2abf 0ee7 9cbe 6d96 c33d dbe1 a6bc

hidden2.weight f4 [512, 256]
-0.083520904 0.6073133 0.015284446 -0.06652213 -0.4065805 -0.1901264 0.053852174 0.2780879
-0.071587846 -0.19047605 -0.20573649 0.09246739 -0.33255818 -0.13271052 0.09397294 -0.12197727
-0.26384646 -0.62008476 0.14351377 -0.15154922 0.40599197 -0.029575678 0.037915625 0.038477894
-0.39339417 -0.50954676 -0.21789335 -0.042025924 0.12437089 0.034575142 -0.86035496 0.104532816
-0.47057405 -0.8757488 0.39020428 -0.039588265 0.19559778 0.018751478 -0.13312441 -0.013071958
-0.019687638 0.40862527 -0.13127981 0.0062407632 -0.3737277 0.079964854 -0.2314815 0.0011478175
0.08681599 -0.14956549 0.0152191315 -0.07148958 -0.005372427 -0.32054168 -0.20376033 0.2813513
-0.008726169 -0.36299157 -0.2501809 0.13220648 -0.0984698 -0.57539797 -0.1974675 -0.06409684
-0.44141564 -0.17618075 -0.09477167 -0.25840887 0.008395272 0.19757456 -0.019912252 -0.08107672
-0.37669462 -0.0139436675 0.04148037 0.24520807 -0.008020382 0.12681662 -0.07401857 0.02681384
-0.029094072 -0.10979052 -0.23660402 0.10926148 -0.35622552 -0.27754083 0.065866664 -0.058905043
0.003170944 0.1202371 -0.26749036 -0.09113301 -0.1407517 -0.05565475 0.24819912 0.27695
-0.12528665 -0.94010216 -0.40025333 -0.20817123 0.09093582 -0.030264609 0.03976065 -0.71487284
-0.08940984 -0.27487636 -0.03920179 0.22214994 -0.52735347 -0.5702574 -0.25439832 -0.35425106
-0.21485442 -1.4273051 0.4022229 -0.20702761 0.040297266 -0.02057113 -0.07042554 -0.27707818
0.07027949 -0.033864807 0.09359033 0.030118788 0.31478354 -0.08764172 -0.2424788 -0.050715975
-0.5745697 -0.074883945 -0.009613387 0.06726371 -0.278671 -0.54821354 -0.01572162 -0.03680705
-0.014457547 0.25988722 0.20519409 0.12933227 -0.09960563 -0.29712558 -0.15045978 -0.25393856
0.22435914 -0.60075295 0.08409367 -0.5639916 -0.52708715 0.015137678 0.008472718 0.6537662
0.10632537 -0.028283002 0.23040242 0.17672402 -0.24809885 -0.14503567 -0.30229506 0.18471064
0.103778265 0.19773835 -0.04544539 0.19332142 -0.16443555 0.057531007 0.24756321 -0.37639916
-0.30288416 -0.42825067 0.15224862 -0.6039724 -0.6175622 -0.1253258 -1.0243673 0.117465705
-0.5997587 -0.722713 -0.11421566 -0.3396834 -0.2040122 -0.5125148 0.21149036 -0.3676142
-0.0052325916 -0.4221502 -0.02625581 -0.35534114 -0.087574095 -0.039141417 -0.4091287 0.08089529
-0.07274389 -0.08544766 0.09016053 0.28494212 0.28305957 0.063874334 -0.22315598 -0.017474951
-0.13147284 -0.4238191 0.01926869 -0.10220494 0.27430856 0.031302553 0.13876839 0.081606284
0.22513047 0.032687023 -0.5737344 -0.19103986 0.059143264 -0.3961302 0.018239744 -0.21071854
0.19227602 0.054762814 -0.7884658 -0.5621252 -0.020115534 0.07422657 0.15332712 0.03202209
-0.06257297 0.014224093 -0.2782352 -0.1784338 -0.32612866 -0.44055316 -0.09540024 0.110974625
-0.20666689 -0.11365957 0.02682348 0.4447001 -0.09487223 0.059701774 0.019277098 0.03411429
0.14239575 0.18913747 0.32914546 -0.081485234 0.010815479 0.18000722 0.036859594 0.070144184
0.08957651 -0.009042775 0.17524853 -0.15282126 0.1695668 -0.25501126 -0.077772394 -0.17164727
00000000: 020d abbd e278 1b3f 9d6b 7a3c c13c 88bd
00000010: 522b d0be 7fb0 42be 1994 5c3d 8a61 8e3e
00000020: a69c 92bd 270c 43be 96ac 52be 8b5f bd3d
00000030: 1145 aabe 44e5 07be e374 c03d 38cf f9bd
00000040: e216 87be e0bd 1ebf 46f5 123e b82f 1bbe
00000050: 2ede cf3e b148 f2bc 6a4d 1b3d ff9a 1d3d
00000060: f66a c9be a871 02bf 6f1f 5fbe 6023 2cbd
00000070: 2ab6 fe3d aa9e 0d3d 3940 5cbf 4d15 d63d
00000080: 15ef f0be 1331 60bf dbc8 c73e 4e27 22bd
00000090: c94a 483e b39c 993c c451 08be c42b 56bc
000000a0: f847 a1bc 5537 d13e 376e 06be 517f cc3b
000000b0: 3d59 bfbe 9dc4 a33d 7d09 6dbe 5d72 963a
000000c0: 95cc b13d b227 19be aa59 793c 2169 92bd
000000d0: 2f0b b0bb 0a1e a4be 8ca6 50be 470d 903e
000000e0: 35f8 0ebc 08da b9be b617 80be 2361 073e
000000f0: 89aa c9bd 484d 13bf ec34 4abe 3445 83bd
00000100: 3b01 e2be ba68 34be a617 c2bd 2b4e 84be
00000110: 538c 093c fc50 4a3e 051f a3bc 8d0b a6bd
00000120: 1ede c0be fb73 64bc 52e7 293d d317 7b3e
00000130: ec67 03bc 37dc 013e 0c97 97bd b3a8 db3c
00000140: b156 eebc dad9 e0bd 5348 72be 7cc4 df3d
00000150: 3163 b6be d519 8ebe 1ae5 863d 6a46 71bd
00000160: 9dcf 4f3b de3e f63d 7ff4 88be f2a3 babd
00000170: 3721 10be 3cf6 63bd e927 7e3e 64cc 8d3e
00000180: 254b 00be 89aa 70bf 01ee ccbe d72a 55be
00000190: 8f3c ba3d 7ced f7bc 10dc 223d e801 37bf
000001a0: 821c b7bd 98bc 8cbe 0e92 20bd 467b 633e
000001b0: a300 07bf 64fc 11bf 7f40 82be 6560 b5be
000001c0: cc02 5cbe efb1 b6bf 29f0 cd3e 0cff 53be
000001d0: bf0e 253d c984 a8bc 443b 90bd 31dd 8dbe
000001e0: b1ee 8f3d d3b5 0abd 49ac bf3d adbb f63c
000001f0: 4f2b a13e 817d b3bd 5d4c 78be 8ebb 4fbd
00000200: 0017 13bf c15c 99bd 7881 1dbc 8ec1 893d
00000210: f7ad 8ebe b957 0cbf a0ca 80bc fdc2 16bd
00000220: 59df 6cbc f00f 853e 661e 523e ae6f 043e
00000230: 09fe cbbd d820 98be 2112 1abe 3c04 82be
00000240: 67be 653e f2ca 19bf 4d39 ac3d c161 10bf
00000250: 2fef 06bf 0604 783c 28d1 0a3c 395d 273f
00000260: 1ec1 d93d c1b1 e7bc 9dee 6b3e 24f7 343e
00000270: a00d 7ebe 3b84 14be 6bc6 9abe c924 3d3e
00000280: b389 d43d ec7b 4a3e f224 3abd 0df6 453e
00000290: cb61 28be a2a5 6b3d 3681 7d3e 64b7 c0be
000002a0: a213 9bbe ac43 dbbe 10e7 1b3e ef9d 1abf
000002b0: 8e18 1ebf 6855 00be 781e 83bf dc91 f03d
000002c0: c989 19bf b803 39bf e6e9 e9bd fcea adbe
000002d0: 93e8 50be 2c34 03bf ee90 583e ee37 bcbe
000002e0: 2976 abbb 1224 d8be 6d16 d7bc 46ef b5be
000002f0: 0c5a b3bd c052 20bd 5179 d1be 6eac a53d
00000300: c0fa 94bd 2fff aebd 15a6 b83d efe3 913e
00000310: 2fed 903e 8cd0 823d 0083 64be a127 8fbc
00000320: d1a0 06be d1fe d8be 5fd9 9d3c d350 d1bd
00000330: 2c72 8c3e 1b37 003d 4d19 0e3e 3221 a73d
00000340: 9a88 663e d4e2 053d 42e0 12bf f49f 43be
00000350: 3540 723d 94d1 cabe 846b 953c 9ac6 57be
00000360: 01e4 443e f94e 603d e5d8 49bf 70e7 0fbf
00000370: 55c9 a4bc 1a04 983d c901 1d3e 9829 033d
00000380: 4226 80bd 2c0c 693c d874 8ebe 5ab7 36be
00000390: 56fa a6be 2f90 e1be 3361 c3bd aa46 e33d
000003a0: 7ca0 53be 59c6 e8bd eabc db3c bbaf e33e
000003b0: 5f4c c2bd d989 743d 01eb 9d3c 6dbb 0b3d
000003c0: 31d0 113e 41ad 413e c185 a83e bbe1 a6bd
000003d0: 6833 313c d053 383e 16fa 163d c1a7 8f3d
000003e0: e473 b73d 2628 14bc 5a74 333e 2d7d 1cbe
000003f0: eba2 2d3e d690 82be 2247 9fbd 4dc4 2fbe

hidden2.bias f4 [512]
-0.08767176 0.09198101 0.17441356 -0.13083984 -0.38353506 -0.2291958 -0.025722602 -0.39376488
-0.13068612 -0.26068476 -0.42902726 -0.60101813 -0.12546583 -0.02603059 -0.44437167 -0.11328821
-0.3317759 -0.3447153 -0.080810905 -0.029769456 -0.1428253 0.08611352 -0.13833028 -0.34785777
-0.2089739 -0.21077377 -0.049713332 -0.0338484 -0.042500947 -0.28342426 -0.17487112 -0.12376538
-0.15820014 -0.07611672 -0.18733592 -0.22507311 -0.05796949 0.00754105 0.1886149 -0.19133647
0.024575625 -0.19250616 -0.17204098 -0.1447128 -0.60181653 0.15229669 -0.23146328 -0.1118947
-0.04775025 -0.03241896 -0.099800974 -0.16073588 -0.03672746 -0.10087188 -0.28177786 -0.06879867
-0.0905129 0.048354104 -0.16327727 -0.2654408 -0.14593293 -0.0029500024 0.18260203 -0.08061337
-0.02515221 -0.3608117 -0.24640523 -0.054662935 -0.3059049 -0.24327353 -0.3998373 -0.19701259
-0.056892868 -0.09718557 -0.08711312 -0.3158831 -0.08210956 0.07618212 -0.101195864 -0.3221227
-0.15188581 -0.14473951 -0.17203432 -0.31660607 -0.17881903 0.115616225 -0.23444867 -0.4614582
-0.067359075 -0.10710719 -0.22697529 -0.18852557 -0.08047667 -0.35286388 -0.12880687 -0.1579751
0.056070488 -0.118111044 -0.013226654 -0.23918875 -0.17336842 -0.06862765 -0.24823563 -0.2923884
0.1845566 -0.27773878 -0.082582 0.06686609 -0.043896843 -0.11580014 -0.17105371 -0.45661888
-0.26834506 -0.07378887 -0.13383868 0.042751193 -0.09084763 -0.37652895 -0.19828574 -0.06293627
-0.22841865 0.1559292 -0.033358727 -0.065416835 -0.10192475 -0.20531411 -0.13358952 -0.146227
-0.0519109 -0.016621586 -0.27535528 0.0052920924 -0.19024464 -0.3751937 -0.07480291 -0.044883348
-0.19407433 -0.19316795 -0.2646072 -0.41842425 -0.20026584 -0.11415291 -0.32502198 0.03185648
-0.05605542 0.07880339 -0.08216655 -0.18921326 -0.27817854 -0.3668503 -0.10316983 -0.08628334
-0.11824534 -0.057058893 -0.09029414 -0.30165946 0.09025997 -0.03709899 -0.04263419 -0.27223513
-0.0881956 0.009601264 -0.24106309 -0.08544336 -0.7039138 -0.22991931 -0.22581176 -0.31923452
-0.07104708 0.085241094 -0.20944664 -0.18747275 -0.02011935 -0.13322112 -0.019370904 -0.15422449
0.016061785 -0.24628776 -0.671759 0.21670102 -0.121378325 0.08393593 -0.19024497 -0.012368793
-0.15082552 0.12045251 -0.092134215 -0.17564104 -0.19686124 -0.25906458 -0.20172837 -0.061716836
0.17653707 -0.16709562 0.12805618 -0.2641677 -0.09732953 -0.18733156 -0.00065995846 -0.07260168
-0.12530982 0.03482001 -0.3954287 -0.32647917 -0.29581666 -0.064795285 -0.19028726 -0.05055761
-0.40129903 -0.6005643 -0.28111383 0.007774634 -0.29832187 -0.12755975 -0.045940578 -0.14521691
-0.1681345 0.009540689 -0.31174782 -0.12750259 -0.13924609 -0.19198418 0.045280557 -0.233479
-0.07832326 -0.012240651 0.17310049 -0.23297025 -0.25714773 -0.18758407 -0.016892182 -0.034283325
0.031185934 -0.13559924 -0.050935015 -0.29123992 -0.13424371 -0.12308333 -0.3343009 -0.06542579
-0.12441978 -0.32140225 -0.060652755 -0.05143298 0.023585109 0.21330789 -0.33997437 -0.2581672
-0.10323528 -0.0555219 -0.19827357 -0.2496143 -0.065400355 0.13824551 0.23736519 -0.17337506
00000000: 408d b3bd 8a60 bc3d 7899 323e e1fa 05be
00000010: b55e c4be 4eb2 6abe 35b8 d2bc 8d9b c9be
00000020: 95d2 05be 7978 85be 76a9 dbbe 53dc 19bf
00000030: 1d7a 00be 1b3e d5bc af84 e3be a603 e8bd
00000040: 88de a9be 867e b0be 3080 a5bd 13df f3bc
00000050: cc40 12be 495c b03d 74a6 0dbe 6a1a b2be
00000060: 41fd 55be 14d5 57be 35a0 4bbd 9fa4 0abd
00000070: 7915 2ebd fc1c 91be 6a11 33be b478 fdbd
00000080: 38ff 21be 15e3 9bbd fdd4 3fbe 9179 66be
00000090: 6a71 6dbd ea1a f73b 4424 413e b5ed 43be
000000a0: d252 c93c 5620 45be 832b 30be 982f 14be
000000b0: a610 1abf aaf3 1b3e b604 6dbe 0c29 e5bd
000000c0: c495 43bd bec9 04bd 7464 ccbd f297 24be
000000d0: 886f 16bd eb95 cebd 3045 90be 51e6 8cbd
000000e0: d45e b9bd f40e 463d 2832 27be dbe7 87be
000000f0: 716f 15be d454 41bb 07fc 3a3e 9f18 a5bd
00000100: 020c cebc 50bc b8be a751 7cbe 3ee6 5fbd
00000110: 919f 9cbe b21c 79be 79b7 ccbe abbd 49be
00000120: 7f08 69bd 3a09 c7bd 5d68 b2bd 6ebb a1be
00000130: 0f29 a8bd 5f05 9c3d c73f cfbd 44ed a4be
00000140: f487 1bbe 9836 14be c429 30be 311a a2be
00000150: 561c 37be 33c8 ec3d 5013 70be 4044 ecbe
00000160: 8ef3 89bd 045b dbbd 366c 68be d90c 41be
00000170: f4d0 a4bd 93aa b4be f3e5 03be 3ac4 21be
00000180: 2baa 653d 34e4 f1bd 9cb4 58bc e5ed 74be
00000190: 7e87 31be a78c 8cbd 7b31 7ebe efb3 95be
000001a0: 68fc 3c3e c733 8ebe c020 a9bd 17f1 883d
000001b0: 2dcd 33bd a028 edbd b428 2fbe f3c9 e9be
000001c0: 8664 89be 9e1e 97bd 020d 09be e01b 2f3d
000001d0: 520e babd 67c8 c0be 6b0b 4bbe bbe4 80bd
000001e0: 94e6 69be e7ab 1f3e 29a3 08bd 43f9 85bd
000001f0: ecbd d0bd dd3d 52be b1cb 08be 88bc 15be
00000200: 86a0 54bd fe29 88bc 5efb 8cbe 4a69 ad3b
00000210: 7ecf 42be 6319 c0be 4532 99bd 9ad7 37bd
00000220: 6cbb 46be d2cd 45be 987a 87be b43b d6be
00000230: 7d12 4dbe 00c9 e9bd 4869 a6be f17b 023d
00000240: 5e9a 65bd ac63 a13d f046 a8bd 1fc1 41be
00000250: 6b6d 8ebe cdd3 bbbe b44a d3bd 52b5 b0bd
00000260: 9d2a f2bd 96b6 69bd 22ec b8bd 1c73 9abe
00000270: 38da b83d 1cf5 17bd 30a1 2ebd 6762 8bbe
00000280: e59f b4bd 9f4e 1d3c 3ed9 76be eefc aebd
00000290: b233 34bf f86f 6bbe 333b 67be b572 a3be
000002a0: 2281 91bd e292 ae3d 2e79 56be dbf8 3fbe
000002b0: 56d1 a4bc 1e6b 08be bbaf 9ebc 06ed 1dbe
000002c0: 0194 833c dc32 7cbe 66f8 2bbf dfe6 5d3e
000002d0: 3395 f8bd 9ae6 ab3d 94cf 42be 7aa6 4abc
000002e0: 0172 1abe ceaf f63d ddb0 bcbd 3fdb 33be
000002f0: fe95 49be 1da4 84be e291 4ebe cbca 7cbd
00000300: 22c6 343e 1d1b 2bbe 2921 033e fd40 87be
00000310: b454 c7bd d8d3 3fbe 1001 2dba 31b0 94bd
00000320: 3851 00be 6d9f 0e3d a175 cabe 4728 a7be
00000330: 4875 97be 64b3 84bd aada 42be 7f15 4fbd
00000340: 1177 cdbe 95be 19bf 27ee 8fbe 5bc2 fe3b
00000350: a5bd 98be 069f 02be 302c 3cbd beb3 14be
00000360: 732b 2cbe 8d50 1c3c 699d 9fbe 0a90 02be
00000370: 8796 0ebe 8097 44be 1b78 393d 1e15 6fbe
00000380: f267 a0bd 038d 48bc 4141 313e c18f 6ebe
00000390: dea8 83be 0a16 40be 7961 8abc ac6c 0cbd
000003a0: a579 ff3c 87da 0abe 3ca1 50bd 661d 95be
000003b0: 2f77 09be 1d13 fcbd 7d29 abbe f5fd 85bd
000003c0: cccf febd d68e a4be 066f 78bd 63ab 52bd
000003d0: 8f35 c13c 626d 5a3e 1f11 aebe 7e2e 84be
000003e0: 056d d3bd ef6a 63bd 3a08 4bbe e49a 7fbe
000003f0: 9ff0 85bd 3b90 0d3e dc0f 733e 3b89 31be

output.weight f4 [1, 512]
0.21348596 0.33048102 -0.23024681 0.12515423 0.40295944 0.26000372 0.048818827 0.09757437
0.25596863 -0.085664935 0.28096512 0.36321774 0.27056834 0.3107401 0.34781107 -0.15120989
-0.6943757 0.67400557 0.05133639 0.0884459 0.10859418 -0.46529093 0.2683535 0.13002165
0.1197578 0.38183612 0.8172835 0.06815175 0.54964995 0.26219913 0.08452396 0.03332261
0.2602143 0.021890031 0.2849317 0.13989493 0.017567294 -0.28817928 -0.19642611 -0.59976375
0.027041718 -1.087814 0.24577676 0.036074936 -0.82594156 -0.29299197 0.44522882 0.0033220418
-0.21096618 -0.12846912 0.48680878 0.29751894 -0.0032404936 0.06553217 0.26415503 0.084475845
0.20941061 -0.609566 -0.31149668 0.36061165 -0.2579716 -0.34075877 -0.34211782 -0.3876369
0.20272149 0.4471196 0.94701827 0.09219839 -0.25404516 0.6676132 -0.50973874 0.18053652
0.0016034354 -0.07297371 0.085684165 -0.061646428 0.005804835 -0.18167971 -0.2079174 0.5457975
0.51728636 0.07432765 0.0053786538 0.11539061 0.05370336 -0.3989941 0.10920446 0.49391127
0.23081064 -0.097514585 0.07947783 -0.1396518 -0.10145267 0.6284604 0.09323551 0.118819825
0.07537394 0.032768596 0.35797083 -0.12054873 0.113450736 0.1225703 -0.1090765 0.1603198
-0.49686816 0.42112082 -0.021281214 -0.41979516 -0.7796538 0.017835306 -0.52217865 -1.0921289
0.277526 0.1860509 0.10449181 0.14349085 0.33294883 0.08687371 -0.02509528 -0.01795736
0.6273135 0.40349883 0.01332428 -0.19774483 0.06692421 0.1860795 0.1962605 0.2547827
-0.33173034 0.73230964 0.3920129 0.027033651 -0.15672614 0.39715827 0.009181965 -0.39717764
-0.59615886 0.20524463 -0.026719209 -0.62882334 -0.071077496 -0.04389929 0.50994915 -0.1304472
0.04467769 -0.30007833 0.06605115 -0.24858934 0.18128417 0.2158206 0.29858148 0.07040931
0.47742397 0.23646939 0.13318583 0.20943695 -0.44897404 -0.014559821 0.042214267 0.09045204
0.75008714 -0.076795556 0.09651206 0.11077058 0.8473439 0.58176845 0.23191445 0.25964585
0.03128743 -0.21599737 0.2589511 0.5069391 0.03739614 0.27288005 0.47573 0.42979077
-0.2598753 -0.42873174 -0.7344002 -0.9556157 -0.029430648 -0.51484823 0.15126354 0.60021645
0.20736499 -0.4659044 0.13455284 0.20446517 0.11439185 0.10732306 0.107440114 0.020991694
-0.30124143 0.12437078 -0.16439457 -0.436309 -0.01128819 0.29270297 0.4636892 0.24872105
-0.0021297848 0.32661048 0.6078157 0.56267047 0.25504026 0.12138599 0.17885993 0.08302747
0.25002214 0.2665767 -0.4407499 0.026750607 0.2685792 -0.20359732 0.15747343 0.06524805
0.04552722 -0.18472223 0.08024837 0.050858747 0.14425877 0.519251 0.24361081 0.33154878
0.08491235 0.059080273 -0.27918768 0.355478 -0.33615398 0.22247556 0.37437683 0.018143903
0.030134013 -0.43131113 0.45231968 0.09973536 0.2302354 0.054259654 0.24877918 0.010757159
0.37649408 0.026411857 0.23570932 0.023077626 0.7196649 -0.5723616 0.78773785 0.33896944
0.023064766 0.053485684 0.04739174 0.13788249 0.19053012 -0.16732167 -0.3787511 0.0047860434
00000000: 109c 5a3e cf34 a93e d2c5 6bbe 6e28 003e
00000010: b350 ce3e 351f 853e 40f6 473d 12d5 c73d
00000020: 520e 833e 1971 afbd a9da 8f3e adf7 b93e
00000030: ef87 8a3e 5419 9f3e 4b14 b23e c4d6 1abe
00000040: 9bc2 31bf a18b 2c3f 1b46 523d 2023 b53d
00000050: a066 de3d 9d3a eebe a165 893e 6524 053e
00000060: 9443 f53d 0680 c33e 7e39 513f 2593 8b3d
00000070: dcb5 0c3f f73e 863e e61a ad3d 4a7d 083d
00000080: cf3a 853e b952 b33c 91e2 913e 9e40 0f3e
00000090: 49e9 8f3c 3c8c 93be ed23 49be 1e8a 19bf
000000a0: 9886 dd3c 7d3d 8bbf e7ac 7b3e 50c3 133d
000000b0: e870 53bf 0b03 96be 08f5 e33e 9db6 593b
000000c0: 8507 58be 698d 03be 003f f93e 6754 983e
000000d0: 765e 54bb bb35 863d 543f 873e ac01 ad3d
000000e0: bc6f 563e 840c 1cbf 7e7c 9fbe 17a2 b83e
000000f0: db14 84be ef77 aebe 112a afbe 5878 c6be
00000100: 3996 4f3e dcec e43e ca6f 723f 82d2 bc3d
00000110: 3512 82be b3e8 2a3f 3d7e 02bf 91de 383e
00000120: 5d2a d23a 3e73 95bd 2e7b af3d f780 7cbd
00000130: 7c36 be3b 3f0a 3abe 4de8 54be 63b9 0b3f
00000140: e16c 043f 1839 983d 6b3f b03b ea51 ec3d
00000150: 0ef8 5b3d f448 ccbe 97a6 df3d f0e1 fc3e
00000160: a059 6c3e bab5 c7bd 46c5 a23d e200 0fbe
00000170: 6bc6 cfbd c8e2 203f 42f2 be3d cf57 f33d
00000180: a75d 9a3d 5d38 063d f447 b73e 41e2 f6bd
00000190: dc58 e83d 2306 fb3d 8063 dfbd e02a 243e
000001a0: 8165 febe 269d d73e f155 aebc 64ef d6be
000001b0: 6497 47bf 591b 923c 80ad 05bf e1ca 8bbf
000001c0: e317 8e3e 2184 3e3e cdff d53d 44ef 123e
000001d0: 4578 aa3e d8ea b13d 9e94 cdbc 501b 93bc
000001e0: 9e97 203f 6697 ce3e 154e 5a3c 9f7d 4abe
000001f0: 8f0f 893d a08b 3e3e 83f8 483e e172 823e
00000200: 8fd8 a9be a578 3b3f eab5 c83e ad75 dd3c
00000210: d17c 20be 5458 cb3e f46f 163c de5a cbbe
00000220: de9d 18bf a62b 523e 3ee2 dabc 91fa 20bf
00000230: 1491 91bd becf 33bd 078c 023f f393 05be
00000240: f4ff 363d dea3 99be d345 873d 348e 7ebe
00000250: 8fa2 393e 1300 5d3e acdf 983e c232 903d
00000260: ea70 f43e 0825 723e de61 083e a476 563e
00000270: eddf e5be 518c 6ebc dee8 2c3d eb3e b93d
00000280: b605 403f fd46 9dbd 1da8 c53d b0db e23d
00000290: 88eb 583f c7ee 143f fb7a 6d3e 4df0 843e
000002a0: 4027 003d 6a2e 5dbe 3d95 843e c3c6 013f
000002b0: b22c 193d efb6 8b3e e292 f33e 890d dc3e
000002c0: 600e 85be ba82 dbbe a701 3cbf 3ba3 74bf
000002d0: 8b18 f1bc 18cd 03bf d4e4 1a3e c9a7 193f
000002e0: 7d57 543e 068b eebe 38c8 093e 515f 513e
000002f0: 4646 ea3d 31cc db3d 9009 dc3d c6f6 ab3c
00000300: 513c 9abe 1cb6 fe3d 0d57 28be e563 dfbe
00000310: 1af2 38bc 2add 953e ac68 ed3e bbb0 7e3e
00000320: dc93 0bbb 7d39 a73e cf99 1b3f 2c0b 103f
00000330: a394 823e 3899 f83d 0f27 373e 4e0a aa3d
00000340: e702 803e be7c 883e f9a9 e1be 1724 db3c
00000350: 3783 893e d17b 50be b740 213e c5a0 853d
00000360: c07a 3a3d d327 3dbe 4259 a43d 4351 503d
00000370: 92b8 133e a2ed 043f 1d75 793e c3c0 a93e
00000380: 87e6 ad3d 28fe 713d b0f1 8ebe 3601 b63e
00000390: 601c acbe a2d0 633e 52ae bf3e 86a2 943c
000003a0: 9bdb f63c d0d4 dcbe 7296 e73e 0d42 cc3d
000003b0: d4c2 6b3e 5f3f 5e3d f8bf 7e3e cc3e 303c
000003c0: d5c3 c03e ae5d d83c c95d 713e 4a0d bd3c
000003d0: f53b 383f 4a86 12bf 30a9 493f 678d ad3e
000003e0: 52f2 bc3c ce13 5b3d d71d 423d 1131 0d3e
000003f0: 541a 433e 5f56 2bbe aaeb c1be 3ed4 9c3b
